FGKpuu/predict/best_model_2.pth (torch, 791688 bytes, 29 tensors)

pretrain_emb_layer.conv_extractor.conv.weight f4 [8, 32, 3]
000000 a0 23 d4 3b 3e 7c 8a 3d 08 40 c5 3d 5d 26 9f bd
       0.0064739734 0.067619786 0.096313536 -0.07770989
000010 12 40 8b bd 88 bb fb bc f0 4a 6e bd 60 e0 c8 3c
       -0.0679933 -0.03072907 -0.058176935 0.024521053
000020 a0 a9 4a bb b4 5d 50 3d a6 70 91 bd 10 16 51 3c
       -0.0030923858 0.050870612 -0.07101564 0.012761608
000030 9c 80 88 bd 4c 0f 2b 3d 7c 4f b2 3d 94 06 9d bc
       -0.06665155 0.041762635 0.08706567 -0.019168176
000040 fb 74 23 bd 18 47 aa 3d 20 81 5c 3d c0 22 b8 3c
       -0.039906483 0.08314341 0.05383408 0.022477508
000050 5a 9d a3 3d cc f5 aa 3d 9c 19 0a 3d 0c 59 15 3d
       0.07988997 0.08347663 0.03371583 0.036461875
000060 be 65 64 bd 80 78 24 3a e4 3c 6e bd 2c d6 79 3d
       -0.05576109 0.00062740594 -0.05816354 0.060995266
000070 4a 42 b0 bd b6 86 b3 bd ce 92 29 bd 78 1c b4 bd
       -0.08606394 -0.087659284 -0.04139977 -0.087944925
000080 8a ce c9 3d 04 ab 24 3d cc 69 1f 3d e0 ab 46 bc
       0.09853847 0.040202156 0.038919255 -0.012125939
000090 30 1d 58 3c a7 04 81 bd ec 60 f0 bc 60 73 51 3c
       0.013190553 -0.062997155 -0.029343091 0.012783855
0000a0 69 6c bd bd 00 b1 20 bc 58 d1 09 bc a4 2d 57 3d
       -0.09249193 -0.009807825 -0.008411728 0.05253376
0000b0 64 0d ce 3d 20 dc 42 3b 48 1a 1f bc 2c 85 c4 3d
       0.10061148 0.0029733256 -0.009710856 0.09595713
0000c0 77 2c 5e bd 10 fb 04 3d 7c a6 10 3d db f0 7a bd
       -0.054241624 0.032465994 0.035315022 -0.061264854
0000d0 b8 a5 41 bd 74 16 80 3c 26 5b 3d bd 00 1e d5 b9
       -0.047277182 0.015635706 -0.046229504 -0.00040648878
0000e0 b8 cc c5 3d 58 d5 13 bc 88 6d 29 3d a6 cf 8d 3d
       0.09658188 -0.009023033 0.041364223 0.069243714
0000f0 c3 32 89 bd 00 a1 4c bb 80 59 e7 3a 20 71 b1 bd
       -0.06699135 -0.0031223893 0.0017650574 -0.08664155
000100 07 83 85 bd 78 7f a2 3d ec 4b b9 bd 1c f8 5c 3d
       -0.06519132 0.07934469 -0.09047684 0.053947553
000110 00 4e 83 bd 0c da 9d bc d4 9f b9 bd c0 7f d7 3c
       -0.06411362 -0.019269012 -0.09063688 0.026306033
000120 68 86 8b 3d 08 50 78 bc 3b cb 2d bd 97 d8 86 bd
       0.06812745 -0.0151558 -0.042430144 -0.0658428
000130 66 66 bd 3d 5a 67 15 bd 20 28 78 3d 39 a2 42 bd
       0.092480466 -0.036475517 0.06058514 -0.04751799
000140 50 e9 16 3c 08 b6 02 3c 10 24 99 bb f3 dd af bd
       0.0092108995 0.00797797 -0.0046734884 -0.08587255
000150 0c 28 1c 3d e4 36 3f 3d a4 ad f2 bc 14 96 af 3d
       0.03812413 0.046683207 -0.029623814 0.08573547
000160 40 15 9d bb 10 e2 41 bd 46 ef 09 bd b8 28 65 bc
       -0.004793793 -0.04733473 -0.033675455 -0.013986759
000170 50 41 bd 3c c7 45 9e bd 92 fc 6b bd ee b2 93 bd
       0.023102432 -0.07728153 -0.057613917 -0.072118625
000180 e0 cc 52 3b 90 23 ae bc 81 39 cc bd 58 75 95 3c
       0.0032165572 -0.021257192 -0.099719055 0.01824443
000190 d9 57 69 bd 10 cc bb 3b b0 45 4b bc 88 d6 21 bd
       -0.056968544 0.0057311133 -0.0124067515 -0.039511234
0001a0 ba ea 94 bd 58 9d 33 3d dc 81 cc bc d8 66 90 3d
       -0.07271333 0.043851227 -0.024964266 0.07050866
0001b0 14 79 c1 3d bc 78 81 3c e0 1b ba bc 50 e2 48 3c
       0.09446922 0.015804641 -0.02271837 0.012260988
0001c0 be 70 b7 3d 53 50 9d bd b0 86 54 3d 1f 33 af bd
       0.08957051 -0.07681336 0.05188626 -0.085546724
0001d0 36 ba a6 3d fc 72 77 3d 82 56 b5 3d 78 15 74 bc
       0.08140986 0.060412392 0.08854391 -0.014897697
0001e0 c8 9f 6b 3d de 72 a8 bd 6e 8d a8 bd a0 0e 9c bd
       0.057525426 -0.08225034 -0.082301006 -0.07619977
0001f0 9c ec 95 3d 90 96 31 3d e8 79 06 bd 56 6c 89 3d
       0.0732052 0.04335648 -0.032831103 0.067101166
000200 ae a6 7b bd ac b7 50 3d 4c 5d 49 3d 78 84 e3 3c
       -0.061438255 0.050956413 0.04916124 0.027773127
000210 f4 aa 8e bd 78 e5 ad 3d e0 e8 76 3d ac 29 b5 bc
       -0.069662005 0.08491033 0.06028068 -0.022114597
000220 5e ba ce 3d 0c ac 7d bd c8 bc 3c 3d fc 2b 76 3d
       0.100941405 -0.061931655 0.046078473 0.06010054
000230 36 98 06 bd b8 4c a7 bd 8c 9e 01 bd e6 bb a5 bd
       -0.032860003 -0.0816893 -0.031645343 -0.080924794
000240 e2 7e 96 bd 44 cf 9b bc ce 98 03 bd 14 0a ef bc
       -0.0734842 -0.01901973 -0.032128148 -0.02917961
000250 78 ba 52 3d 16 46 ac 3d e0 de 76 3b b0 fc 3c bc
       0.05144736 0.08411805 0.0037669465 -0.011534855
000260 30 af e0 3c 20 71 5b bc f8 2d 11 3c 44 5b 70 3d
       0.027427286 -0.01339367 0.008861057 0.058680788
000270 06 3d 23 bd a0 66 26 3d c0 6f 4c 3c a0 c8 4a 3b
       -0.03985312 0.040625215 0.012477815 0.0030942336
000280 e2 a1 a8 3d 14 bc ee bc 44 a5 7f bd 26 8c 95 bd
       0.08234002 -0.029142417 -0.06241347 -0.07302122
000290 74 20 b0 3c 34 24 81 3c 94 4a 61 bd 68 fb 17 bd
       0.02149985 0.015764333 -0.055002764 -0.037104994
0002a0 c3 f4 a3 bd e0 22 3e 3b 1c 0e b8 bc 7b 16 32 bd
       -0.08005669 0.0029012486 -0.022467665 -0.04347847
0002b0 c0 e6 91 3d b0 c3 ee 3c 96 0a a7 bd ea 96 95 3d
       0.0712409 0.029146045 -0.08156316 0.07304175
0002c0 6e 73 b8 3d f4 c0 55 bd 0a 76 a5 3d 34 03 bb bc
       0.090063915 -0.052185968 0.08079155 -0.022828676
0002d0 dc bd b8 3d 32 c9 a0 3d 48 4c 36 3d f2 37 b1 3d
       0.09020588 0.07850875 0.04450634 0.08653249
0002e0 14 2e 65 3d 1c 40 83 bc 8c 3a 63 3d fa 1c b9 3d
       0.055952147 -0.01602178 0.055475757 0.0903873
0002f0 70 ad 5a 3d 20 4e 61 bb 09 40 83 bd 7c 0b 78 3d
       0.05338806 -0.0034378842 -0.06408698 0.060557827
000300 04 ca 90 bc 4c 6e a9 bd 10 7e 91 3d d6 af 17 bd
       -0.017674454 -0.082729906 0.07104123 -0.037032925
000310 0a da 90 3d 44 db 95 bc 9c 9f fe bc 90 4f a6 3d
       0.07072838 -0.01829303 -0.031081967 0.08120644
000320 47 60 9d bd 18 5b 10 bd e2 8f c2 3d 44 1e 9f bd
       -0.07684379 -0.035243124 0.095001 -0.077694446
000330 32 3e 17 bd 16 20 7f bd 50 bc 90 3d 92 37 17 bd
       -0.03692455 -0.06228646 0.07067168 -0.03691823
000340 8b 76 4a bd c6 71 5f bd c0 4d 49 bc b0 00 ce bb
       -0.049429458 -0.054551862 -0.012286603 -0.006286703
000350 d4 44 16 bd 87 0b cf bd 48 7f 91 3c 4c 4f 78 bd
       -0.036686733 -0.101096205 0.017760888 -0.0606225
000360 a4 1b 96 3d 44 07 89 bc b8 fd 86 3d e0 99 2e bb
       0.07329491 -0.016727097 0.06591362 -0.002664201
000370 01 fa 3a bd 3a d5 93 3d 3c 5a b2 bd 5a c4 a7 bd
       -0.04564858 0.07218404 -0.08708617 -0.08191748
000380 78 37 69 3c 00 65 3d ba e8 b0 63 3d 4a ce 97 3d
       0.014234416 -0.0007224828 0.055588633 0.074123934
000390 2f d1 4f bd b0 7f 8d 3c e6 35 9a bd 42 03 b4 3d
       -0.050736602 0.0172728 -0.075298116 0.08789684
0003a0 64 17 1b 3d d4 9f c5 bd ac 95 84 3d 04 ea f2 bc
       0.037864104 -0.096496254 0.0647386 -0.029652603
0003b0 bd 75 38 bd d0 87 bd bb c0 7f 52 3b 32 ab 52 bd
       -0.04503416 -0.0057840124 0.0032119602 -0.051432796
0003c0 30 70 78 3c a5 a4 2c bd e8 9f b5 3d cf 23 37 bd
       0.015163466 -0.042149205 0.0886839 -0.044711884
0003d0 2c 96 8d 3c 88 8c a4 3d 3a 64 87 3d 4c 9c b4 bd
       0.017283522 0.08034617 0.066109136 -0.08818874
0003e0 ce 43 b5 3d 30 81 b8 bb 22 55 9d bd f7 d9 ce bd
       0.08850823 -0.0056306347 -0.076822534 -0.10100167
0003f0 e4 dd 76 3d 1e 6a 65 bd 02 88 87 3d 30 64 a9 3d
       0.060270205 -0.056009404 0.06617738 0.082710624

pretrain_emb_layer.conv_extractor.conv.bias f4 [8]
000000 70 c1 b2 3d b8 55 b9 3c 04 50 39 3d 20 db 34 3c
       0.087283015 0.022623882 0.045242324 0.011038572
000010 62 17 2a bd 70 bf e0 3c 43 01 52 bd b4 52 83 3d
       -0.041526206 0.027435035 -0.051270735 0.06412259

pretrain_emb_layer.embedding_to_128_layers.0.linear.weight f4 [32, 2048]
000000 38 bf ba 3b d0 45 a5 bc d1 5b a8 bc 40 6b 7e 3a
       0.0056990646 -0.02017489 -0.020551594 0.00097053126
000010 98 80 05 3c 50 5d 2e bb 11 4c a7 bc 9b f5 4f bc
       0.008148335 -0.0026605912 -0.020422013 -0.012692834
000020 86 89 96 bc 9a 0f 5b 3c 27 55 ae bc b0 c9 2d bb
       -0.018376123 0.013370419 -0.021280838 -0.002651792
000030 c0 7b 2a ba ab e7 a2 3c 44 cc 26 bc d0 c7 4f 3b
       -0.00065034255 0.019885859 -0.010180537 0.003170479
000040 72 48 2c 3c 89 48 80 3c b8 e3 ee bb 46 3c 7f 3c
       0.010515319 0.015659587 -0.00729033 0.015578335
000050 8a 52 16 bc 72 92 24 3c 39 ca b2 3c f7 af 9f bc
       -0.009174952 0.010044681 0.021824943 -0.019493086
000060 03 6b 4d bc a5 85 ad 3c 4b 47 8a 3c f5 76 97 3c
       -0.012537721 0.02118189 0.016879698 0.01848934
000070 e0 74 a0 3a 1e 47 7e 3c 76 ea 4f 3c ca a4 15 bc
       0.0012241863 0.015519885 0.012690177 -0.009133527
000080 8a 52 3e 3c ec 01 be 3b ae 45 67 3c 00 2b bc b8
       0.0116163585 0.005798569 0.014115734 -8.972548e-05
000090 c9 12 3f bc 58 b6 71 3b ac 77 ce 3b 8a 9e 6b bc
       -0.011662194 0.0036882367 0.006300887 -0.01438106
0000a0 1c ec 7e bc 60 54 5b ba 93 94 9a 3c 10 9a 90 bb
       -0.015559223 -0.000836676 0.018869674 -0.004412897
0000b0 89 b4 95 3c 5a 13 7a 3c d8 c1 ee bb 60 0c 19 bb
       0.018274562 0.015263403 -0.0072862916 -0.0023353323
0000c0 05 eb 92 bc 44 59 bb 3b 6c 19 8e bb f9 f8 9b 3c
       -0.017934332 0.0057174284 -0.0043365266 0.019039618
0000d0 f0 32 69 bc 6a 51 6e bc 2c 4b 09 bc bb e9 a0 bc
       -0.014233336 -0.014545778 -0.008379739 -0.019642701
0000e0 fa 19 41 3c 78 15 06 bb 78 e2 6f bc 70 54 ac bb
       0.011785978 -0.0020459574 -0.014641397 -0.005259089
0000f0 10 01 76 3b 85 0b 12 bc ad 33 82 bc 4e 4b 1f 3c
       0.0037537254 -0.008913879 -0.015893782 0.009722544
000100 2a f6 27 3c 49 17 4d bc 00 48 34 39 58 1d 4d bb
       0.010251561 -0.012517759 0.0001719296 -0.0031298008
000110 5b 40 57 bc 23 7c a2 3c c0 4a 96 b9 fa e8 24 3c
       -0.013137902 0.019834584 -0.00028665923 0.010065312
000120 7f 59 b4 3c 30 99 56 bb 6a f6 9b bc d1 87 a7 3c
       0.022015331 -0.0032745115 -0.019038398 0.020450504
000130 b0 e6 79 bc a2 16 57 3c 9e 86 2e 3c 20 fb ad 3a
       -0.015252754 0.013127955 0.010652212 0.0013273694
000140 f0 ac 07 3b 70 dc 3d 3b 0c 2f df 3b f2 2c 76 3c
       0.0020702444 0.0028970502 0.0068110283 0.015025364
000150 0a 3d 6e bc 98 b8 e4 3b 12 20 5c 3c e6 58 87 bc
       -0.01454092 0.006980013 0.0134353805 -0.016521882
000160 2f c6 85 3c 82 ba 26 3c 61 7e 73 bc f6 a9 94 bc
       0.016329853 0.010176303 -0.014861674 -0.01814745
000170 6e 95 65 3c 6c e2 dc bb 87 ac ae 3c 93 97 20 bc
       0.014012678 -0.006740859 0.021322502 -0.009801763
000180 c3 d0 a8 3c e2 b3 46 3c 00 09 f8 38 d3 db a4 3c
       0.020607358 0.012127848 0.00011827238 0.020124352
000190 84 da de 3b 1c 36 a9 bb 44 b8 f4 bb 14 48 3c bc
       0.0068009514 -0.005163921 -0.0074682552 -0.011491794
0001a0 4e 67 6d 3c e6 ae 66 3c 06 11 2f 3c 50 a1 bf 3a
       0.014489962 0.014079785 0.010685211 0.0014620218
0001b0 53 c3 a7 bc 32 b3 d5 bb f7 2a b1 3c 1f c2 83 3c
       -0.02047888 -0.006521606 0.021626933 0.016083775
0001c0 a0 98 f1 ba 00 59 2b 3a b5 25 2f bc be 71 37 3c
       -0.0018432327 0.00065363944 -0.010690142 0.011196552
0001d0 80 dd 99 39 70 b1 f0 3b 00 64 96 3b eb df 9e bc
       0.00029347464 0.007345371 0.0045895576 -0.019393882
0001e0 0e 1c 22 3c ca 35 37 3c 5d 00 98 bc 48 bb 64 bb
       0.009894384 0.011182258 -0.01855486 -0.0034901667
0001f0 2c 51 88 3b 40 1e 90 3a 70 89 39 3b 14 8c 9b 3b
       0.004160067 0.0010995343 0.002831068 0.004746923
000200 b6 4f 55 3c 35 0d a0 3c 20 d8 f1 ba 5a fe 5d 3c
       0.013019493 0.019537548 -0.0018451251 0.013549412
000210 18 3f 5b bb bc e8 44 bc 20 fc 5a ba 58 da 9b bc
       -0.0033454355 -0.012018379 -0.00083536096 -0.019025013
000220 1f de 41 bc 14 cc bf 3b 40 86 19 3a 8b 24 85 3c
       -0.011832743 0.0058531854 0.00058564916 0.016252777
000230 87 cc 9e 3c 48 93 6b bc 70 7c 6a bc 3a f0 33 bc
       0.019384636 -0.014378376 -0.014311895 -0.010982567
000240 1f 92 81 3c 12 61 14 3c 6f e4 3c bc 80 cb ff 39
       0.015816746 0.0090563465 -0.011529072 0.0004878901
000250 5e cf e6 bb 55 58 91 3c 18 64 86 bc ae de 5a 3c
       -0.007043763 0.017742315 -0.01640515 0.013358755
000260 ec db 99 bb d5 7a ac 3c 40 8e d0 3b 0a 9d 10 bc
       -0.004695406 0.021054665 0.006364614 -0.0088265035
000270 75 a2 1c bc 46 39 8a bc e0 ce a6 bc 4a 16 20 3c
       -0.009560217 -0.016873013 -0.020362318 0.009770939
000280 88 d1 95 bc 18 fe 6d 3b 90 d7 80 bc b0 41 75 bb
       -0.018288389 0.0036314782 -0.015727788 -0.0037423186
000290 b8 8e d4 bb 34 95 da 3b 21 af 92 3c aa fa 23 3c
       -0.00648674 0.0066706184 0.017905774 0.010008493
0002a0 d8 e4 28 bb e4 8e ff bb e0 cc 22 ba 08 00 af bb
       -0.0025771167 -0.0077990163 -0.00062103383 -0.00534058
0002b0 34 ae e9 3b 69 f8 8c 3c c0 6b 82 b9 09 fa b0 3c
       0.0071313623 0.017208295 -0.00024875812 0.021603601
0002c0 00 24 a0 b7 e5 33 a7 bc 10 0c fe ba f9 38 96 3c
       -1.909025e-05 -0.020410487 -0.0019382257 0.018337714
0002d0 f4 cd 31 bc 03 4a 57 bc 07 5e 9b bc 68 14 54 bb
       -0.010852326 -0.013140204 -0.018965734 -0.0032360796
0002e0 ee 86 1a 3c 1e 1c 1a bc 00 84 c2 3b 42 d9 4e bc
       0.009431584 -0.009406118 0.005936146 -0.0126250405
0002f0 2e 67 21 3c 9e c4 3f 3c 56 83 67 3c 3a 4e 80 bc
       0.00985126 0.011704592 0.014130434 -0.015662301
000300 1c 8e ff 3b 15 74 21 bc 68 5c d4 3b d5 9b 8f 3c
       0.007798923 -0.009854336 0.0064807422 0.017530361
000310 ee 57 52 3c 64 f9 da 3b 30 54 88 bc 04 76 d4 bb
       0.012838347 0.0066825617 -0.016641706 -0.006483795
000320 7d a8 7f bc 3d 6b 5f bc 7c 9d f4 3b 2f 3a ae 3c
       -0.015604136 -0.013636407 0.0074650627 0.021267978
000330 83 30 a7 3c 74 4d ac bc 90 33 9d 3a 6a 45 76 3c
       0.020408874 -0.021033026 0.0011993516 0.015031198
000340 48 8c 17 3b 08 7e 5f 3b 10 81 df 3b 0c 62 e3 bb
       0.0023124386 0.003410222 0.0068208054 -0.0069391783
000350 a1 69 8f 3c 80 e3 b6 3a 58 7a a0 bb 36 5b 42 3c
       0.017506422 0.0013953298 -0.004897397 0.011862567
000360 fc 5f bb bb 5c 00 c5 3b 16 11 44 3c d4 0b ca bb
       -0.0057182293 0.0060120057 0.011966964 -0.006165961
000370 74 f7 ee 3b 6a 05 11 3c 22 00 46 3c 02 13 62 bc
       0.0072926823 0.0088513885 0.012084993 -0.013798477
000380 b5 23 1e bc be 2e 51 bc c3 31 8e bc 07 b3 a5 bc
       -0.009652068 -0.012767492 -0.017357713 -0.020226968
000390 d5 c2 ae bc d0 2e d9 bb ab 91 88 bc d6 73 4c 3c
       -0.021333138 -0.006627895 -0.016671022 0.012478789
0003a0 3d 03 28 bc f8 0d d5 3b 2a 42 4b bc 08 82 0c 3b
       -0.010254678 0.0065019093 -0.012405911 0.002143981
0003b0 38 40 2d 3b 00 90 cf b7 be 37 e5 bb 18 58 88 bb
       0.0026435982 -2.4743378e-05 -0.0069951704 -0.004160892
0003c0 14 89 9d bc 20 89 da 3a 7d e7 24 bc 3a 0b 26 3c
       -0.019230403 0.0016672947 -0.010064957 0.010134513
0003d0 4f 59 a0 bc ef 19 b2 bc 12 cc 1c 3c 20 12 8d 3b
       -0.019573836 -0.021740882 0.0095701385 0.004305139
0003e0 76 64 7c 3c f0 7b 84 ba d0 75 b9 3a 50 55 6e bb
       0.015404811 -0.0010107737 0.0014149491 -0.0036366768
0003f0 20 89 73 3b ef b2 5a bc 40 14 a0 b9 d8 5b 06 bb
       0.003716059 -0.013348325 -0.00030532666 -0.002050152

pretrain_emb_layer.embedding_to_128_layers.0.linear.bias f4 [32]
000000 38 fb 68 bb b7 ac 8f 3c d2 20 01 3c 48 7a 5e 3b
       -0.0035550129 0.017538412 0.00788136 0.0033947397
000010 20 02 96 3b 7e d5 ea bb 7a cd ae bc c2 1c 8d bc
       0.00457789 -0.0071665635 -0.021338213 -0.017225627
000020 a1 a3 00 bc 06 5c e5 bb b1 82 a2 bc e8 e5 9f bb
       -0.007851512 -0.0069994954 -0.01983771 -0.004879702
000030 e1 e3 9e 3c cb a2 9a bc c8 f9 5f 3b 4a b1 3a 3c
       0.01939577 -0.018876454 0.003417598 0.011394808
000040 86 ba 27 3c ec 96 4a bc e7 46 5a bc 80 2f 97 39
       0.010237342 -0.012365084 -0.0133225685 0.00028836355
000050 b4 63 cb 3b 4c 64 b4 bb 30 bf 06 bb 00 ed 5c bb
       0.006206954 -0.0055051204 -0.0020560734 -0.00337106
000060 61 33 93 3c 6a 56 71 bc 1b 8e 2d bc 10 a3 89 ba
       0.017968835 -0.014730075 -0.010592963 -0.0010500867
000070 d6 fd 20 3c 20 1a b1 3a 72 ff 50 bc 61 b4 82 3c
       0.009826144 0.0013511814 -0.012756215 0.015955152

pretrain_emb_layer.embedding_to_128_layers.1.linear.weight f4 [32, 167]
000000 8a b9 c6 bc 5c 1e 99 3d 6a 35 8e 3d 18 58 a8 3c
       -0.024258394 0.07476494 0.06943782 0.020549819
000010 08 28 34 3c 80 9e f7 bb c6 1c 42 bd b0 79 93 3d
       0.010995872 -0.0075567365 -0.04739072 0.072009444
000020 58 77 60 3d 04 31 f2 3c 4c 98 75 3d 33 85 37 bd
       0.054801315 0.029564388 0.059959695 -0.044804763
000030 18 58 0f 3d dc e5 51 3d 2e b8 79 bd f3 be 54 bd
       0.034996122 0.0512446 -0.060966663 -0.051939916
000040 a0 e9 8f bb d0 b8 3f 3d 84 1b ec 3c e8 20 76 3c
       -0.004391864 0.04680711 0.028821714 0.015022494
000050 e8 d2 0f bc 2e 15 40 bd ec d6 4c 3d cc f8 8a bd
       -0.008778311 -0.0468952 0.050009653 -0.067857355
000060 80 fa 53 3a ea 6e 4a bd 0f ee 9a bd 5c 1b 7a 3d
       0.00080863386 -0.049422182 -0.07564937 0.06106125
000070 0c 26 b8 3c 40 33 9d bd 30 7c 48 3c 33 53 0d bd
       0.02247908 -0.07675791 0.01223664 -0.034503173
000080 92 6d 4b bd 66 82 56 bd 70 b4 e5 bb 54 05 37 3d
       -0.04966504 -0.05237045 -0.007010035 0.044682816
000090 16 38 28 bd fe a6 1d bd 6a 37 48 bd 5c 54 2c bd
       -0.041069113 -0.038489334 -0.048880972 -0.04207264
0000a0 5a dc 90 bd 96 fc 88 bd f0 1b bf 3c 52 18 21 bd
       -0.07073279 -0.06688802 0.023328751 -0.039329834
0000b0 e8 a1 76 3c ca 95 2f 3d 00 1e 1c bd a8 9d 88 3d
       0.01505325 0.04286746 -0.038114548 0.066706955
0000c0 40 e2 c3 3c 3b 09 05 bd 60 75 04 3b 78 62 a2 3c
       0.023911595 -0.032479506 0.0020211563 0.019822344
0000d0 bc 3c 5d bd f2 7a 3e 3d be b5 07 bd c8 d8 9f 3c
       -0.054013 0.04650397 -0.033132307 0.019512549
0000e0 88 99 5f 3d 12 c8 87 3d d2 34 84 bd 68 4a 4c 3c
       0.05458978 0.06629957 -0.06455387 0.012468912
0000f0 40 25 63 bc 7c 76 0f bd ee 22 28 3d 68 e8 01 3c
       -0.013863862 -0.035025105 0.041048937 0.007928945
000100 18 71 cd 3c 72 30 38 bd e0 98 fe 3b ed 6c 92 bd
       0.025078341 -0.044968076 0.007769689 -0.07149682
000110 80 b6 14 3b 20 9e 8c bb 20 07 7b 3d 8e 03 88 3d
       0.0022691786 -0.004291311 0.06128609 0.06641303
000120 f8 cc 76 bc 00 c2 75 3d 1a 26 93 3d 94 37 e2 bc
       -0.015063517 0.059999466 0.07185002 -0.027614392
000130 80 0b 36 3c 70 9a 13 bc 30 7a ff 3c a0 33 61 3c
       0.01111114 -0.009008989 0.031186193 0.0137452185
000140 b8 fc 06 3d 94 c0 b9 3c aa 00 89 bd 32 b0 95 3d
       0.032955855 0.022674836 -0.0668958 0.07308997
000150 b6 39 84 3d 36 41 21 3d 90 51 78 3d 0d af 2d bd
       0.0645632 0.03936883 0.06062466 -0.04240327
000160 80 bc 84 3a 2c 60 f2 3c b0 2a c1 bb 70 21 6f bc
       0.0010126978 0.029586874 -0.0058949813 -0.014595374
000170 8c 6b 3f bd 00 c6 96 3d c0 15 3d 3c 70 70 d0 bc
       -0.046733424 0.07361984 0.01154083 -0.02544424
000180 5c 7c 55 3d ea 72 2b 3d 52 f8 54 bd f0 ee 99 3b
       0.05212055 0.041857637 -0.05199463 0.004697673
000190 fb 3e 8a bd cc 30 4f bd 54 14 e9 bc 74 bb 74 3d
       -0.06750294 -0.050583646 -0.028452076 0.05974908
0001a0 c0 ab 80 3b 00 9c ef 3a 9a 72 8d 3d 3c de 18 3d
       0.003926724 0.0018280745 0.06906624 0.037321314
0001b0 78 71 1d bc 0c e7 88 3d 78 8a c6 bc 80 40 4d 3c
       -0.009609573 0.06684694 -0.024235949 0.012527585
0001c0 24 a1 21 3d 08 76 5d bc 60 7d 7e 3c 48 35 94 3d
       0.039460316 -0.01351691 0.015532821 0.07236725
0001d0 5e 85 6b bd d0 23 a0 3b e0 56 47 3b 3c 00 ee bc
       -0.057500236 0.0048870817 0.0030416772 -0.029052846
0001e0 b2 bc 86 3d 60 3d b7 bb 00 7d a3 3b 60 44 72 3d
       0.065789595 -0.0055920333 0.0049892664 0.05914724
0001f0 fe 75 9d 3d d4 0f 1d bd 8a 4e 8a bd 59 06 20 bd
       0.07688521 -0.038345173 -0.067532614 -0.039068554
000200 ea 70 a1 bc d4 38 7a 3d cc fe be bc 4a e8 2c 3d
       -0.019707162 0.06108935 -0.023314856 0.042213716
000210 c0 6b cc 3c b6 41 d6 bc b0 78 b9 3b 06 63 94 3d
       0.024953723 -0.02615438 0.005660139 0.0724545
000220 86 4f ab bc b0 73 4f bc 78 e5 57 bc f0 ef a5 bc
       -0.020911943 -0.012661859 -0.013177268 -0.020256013
000230 70 a4 ce bb a4 5a ad 3c 32 6a 89 bc 76 af c7 bc
       -0.0063062236 0.021161385 -0.01677427 -0.024375658
000240 e9 90 86 bd 54 20 1a 3d 67 d8 09 bd 66 c6 09 bd
       -0.06570608 0.037628487 -0.033653643 -0.033636473
000250 80 88 1c 3b e8 9d 4c bd 4d 0f 96 bd 53 29 15 bd
       0.0023885071 -0.04995528 -0.07327137 -0.036416363
000260 0a 3e 07 3d a8 1f 4b 3c d8 bf 7a 3c d7 30 94 bd
       0.03301815 0.012397684 0.015304528 -0.07235878
000270 79 cb 96 bd ef f9 60 bd a4 11 46 bd fa 63 92 bd
       -0.07363028 -0.054925855 -0.048356667 -0.07147975
000280 5e 12 80 3d 14 6d 7f 3d 58 8c 06 bd f2 47 94 3d
       0.06253503 0.062359884 -0.032848686 0.07240285
000290 88 10 94 bd c8 a1 1c bd 00 61 8e ba 88 8c 76 3d
       -0.072297156 -0.038240224 -0.0010862648 0.060192615
0002a0 bc 7e 95 bd f6 ce 0b bd 14 d4 13 3d 8b 76 0e bd
       -0.07299563 -0.03413292 0.036090925 -0.03478102
0002b0 c0 d6 d7 3a 46 37 13 bd 5a e1 9d 3d 7d 35 8e bd
       0.0016467199 -0.035941385 0.07708998 -0.06943796
0002c0 ec f6 4d bd 04 a2 97 3c 70 64 39 bc 92 9d 73 bd
       -0.05028431 0.018509872 -0.01131545 -0.059476443
0002d0 20 a5 0d 3d 78 34 84 3c 30 40 90 bb 50 9a 6f bc
       0.034581304 0.0161383 -0.004402183 -0.014624193
0002e0 f8 20 43 3d 06 57 84 bd de a5 94 3d b8 ea cb bc
       0.047638863 -0.06461911 0.07258199 -0.024892196
0002f0 06 7b 9a 3d 30 e0 c4 3c 1c b4 10 bd 5b bc 91 bd
       0.07542996 0.024032682 -0.035328016 -0.07116004
000300 90 f7 99 3c 45 2f 5a bd c0 c1 93 bb 4c 22 e2 bc
       0.018794805 -0.053267736 -0.004509181 -0.027604245
000310 f2 c8 2b 3d 48 60 b6 3c 00 10 c9 b7 70 3f 9b bb
       0.041939683 0.022262707 -2.3968518e-05 -0.004737787
000320 8c 73 a8 bc 98 e7 56 bd b0 e4 26 bc 1a a6 9a 3d
       -0.02056291 -0.05246696 -0.010186359 0.075512126
000330 ec 96 8d 3d 66 39 74 bd 7e 76 76 bd 90 d7 2d bd
       0.06913552 -0.059625052 -0.060171597 -0.042441905
000340 4e 1a 39 3d d3 b0 3d bd 40 f5 85 3a a0 71 e3 bb
       0.0451911 -0.04631121 0.0010220185 -0.0069410354
000350 f0 3a 70 3d 80 98 d3 3c 80 9c 9c 3d 78 b7 47 3d
       0.058649957 0.025829554 0.076470375 0.048758954
000360 64 10 78 bc 18 18 6e bc a0 19 8d 3c 5f 39 02 bd
       -0.015140627 -0.014532112 0.017224133 -0.031792995
000370 90 25 d7 bb f6 f8 76 bd f0 30 c0 bb 35 fe 34 bd
       -0.006565757 -0.06029602 -0.005865209 -0.044187743
000380 70 0c de bb aa d1 d3 bc 00 6b 9c bd b8 6f e0 3c
       -0.006776385 -0.025856812 -0.07637596 0.027397022
000390 04 5f 98 bc d8 4a 2a bd b6 eb 28 3d 32 aa 7d bd
       -0.018599994 -0.041575283 0.041240416 -0.06192989
0003a0 2a 2e 84 bd 48 51 95 3d f0 a3 fe 3b 25 38 96 bd
       -0.064541176 0.07290894 0.0077710077 -0.073349275
0003b0 6c aa 45 3d 3a 1c 1e 3d 1b 59 71 bd 00 0c 00 bc
       0.04825823 0.038601138 -0.05892287 -0.007815361
0003c0 78 a1 d0 3c fb e7 60 bd 2a 67 aa bc 90 88 4c 3d
       0.02546762 -0.054908734 -0.020801146 0.049934924
0003d0 b8 e0 8c 3d c8 6e 55 3c 60 8e 2b bc fc b0 98 3c
       0.06878799 0.013026901 -0.010470957 0.01863908
0003e0 b0 fb 4a 3c 56 e8 c9 bc 43 37 1d bd 90 51 9c bd
       0.012389109 -0.02464692 -0.03838278 -0.07632744
0003f0 34 ff e1 3c 1c 3f 3f 3d c6 53 9b 3d 84 7c 55 bd
       0.02758751 0.046691045 0.07584338 -0.0521207

pretrain_emb_layer.embedding_to_128_layers.1.linear.bias f4 [32]
000000 2e a3 99 3d b4 96 91 3d 9c 61 66 3d c2 74 60 bd
       0.07501827 0.071088225 0.05624543 -0.05479885
000010 3e 6e 21 3d 9e 97 37 bd e0 82 22 3b 50 77 4c bd
       0.039411776 -0.044822328 0.0024797246 -0.049918473
000020 c6 0a 76 bd f2 e1 85 bc b9 50 8e bd 8e eb 21 3d
       -0.060068868 -0.01634309 -0.069489904 0.039531283
000030 fc 4b 53 bd fc 4b 41 bd 80 e7 d3 3c 72 c2 92 bd
       -0.051586136 -0.047191605 0.025867224 -0.07165994
000040 9e 73 8e 3d cc 2f 8a bc 82 01 18 3d 82 50 93 bd
       0.06955646 -0.016868494 0.037110813 -0.0719309
000050 61 45 3c bd 00 a4 e8 ba a1 34 99 bd 0c df bf 3c
       -0.045964602 -0.0017749071 -0.07480741 0.023421787
000060 9c e9 5a 3d 90 04 d9 3c 5c dc 85 3d f0 c7 15 bd
       0.053445444 0.026491433 0.06536171 -0.03656763
000070 10 b5 9f 3c 00 32 5d ba 74 98 2b 3d 08 8d 34 3c
       0.019495517 -0.00084379315 0.041893438 0.011019953

pretrain_emb_layer.embedding_to_128_layers.2.linear.weight f4 [32, 79]
000000 68 ab b0 3c e0 ab a9 bc 08 6f 8a 3d 98 dd 90 3c
       0.021566108 -0.02071184 0.06759459 0.01768379
000010 d4 ea 6e bd 3c 9d b1 3d 68 b0 c1 3c 6c 61 50 3d
       -0.05832942 0.08672568 0.023643687 0.05087416
000020 80 68 42 bc 0c 93 c9 3d d5 c2 df bd 39 ae bc bd
       -0.011865735 0.098425 -0.10925833 -0.09212918
000030 12 07 ba 3d 40 17 d6 bc 18 8b 9c 3c 70 44 a3 3c
       0.0908338 -0.026134133 0.019109294 0.019930094
000040 a0 5e 70 bb a0 25 e5 bb 0c 76 c0 bc 70 82 4a 3d
       -0.0036677495 -0.0069930106 -0.02349379 0.0494408
000050 30 b7 13 3d a0 ff ee bc f8 f7 c9 3d dc 81 09 bd
       0.036063373 -0.029174626 0.098617494 -0.03357111
000060 00 f5 8b ba dc d2 52 3d 30 2c 0d 3c 4c 47 4c 3d
       -0.0010677874 0.051470622 0.008616492 0.04987268
000070 53 84 e0 bd 10 b8 06 bd de 8f 91 bd 6b d3 9d bd
       -0.10962739 -0.03289038 -0.071075186 -0.077063404
000080 78 d3 97 3c fa 10 b3 bd 48 b1 de 3d 20 1d f4 3c
       0.018533453 -0.087434724 0.108736575 0.029799044
000090 18 04 47 3c d4 ed e4 bc 02 ab b1 3d d4 74 94 3d
       0.012146972 -0.027945437 0.08675195 0.07248846
0000a0 36 e5 08 bd 00 e0 56 37 02 d9 e3 3d 04 33 33 3d
       -0.033421718 1.2807548e-05 0.11125375 0.043749824
0000b0 96 93 89 3d e0 16 0a 3b 94 d0 3b 3d d8 35 f6 3c
       0.06717603 0.0021070763 0.045853212 0.030054972
0000c0 d0 56 ad 3d a4 53 30 3d c0 04 93 bd 78 99 84 3c
       0.08463824 0.043048516 -0.0717864 0.01618646
0000d0 1a e2 39 bd 40 ce 90 ba 82 51 16 bd c4 63 48 3d
       -0.045381643 -0.0011047795 -0.036698826 0.04892327
0000e0 dc a6 ae bc 5a 05 94 bd 6a c8 a6 3d 50 1f 69 3c
       -0.0213198 -0.07227583 0.08143695 0.014228657
0000f0 00 4e 40 39 c0 46 a4 bb b1 3a 52 bd d0 cd 7c 3c
       0.00018339604 -0.005013317 -0.051325504 0.015429929
000100 28 40 af 3c f2 a0 c6 bd 48 b8 80 3c 98 fd 27 3c
       0.021392897 -0.09698667 0.015712872 0.010253333
000110 33 75 ae bd af 75 e3 bd 12 a8 d2 3d 86 61 b3 bd
       -0.08518448 -0.11106431 0.10285963 -0.087588355
000120 90 b6 e4 3b c8 13 a2 bc ec 39 01 3d da ec d7 3d
       0.006979771 -0.019784823 0.03154938 0.10543223
000130 1b 09 b6 bd 0a f4 cc 3d 63 23 a7 bd e1 49 d5 bd
       -0.088884555 0.10007484 -0.08161046 -0.10414482
000140 a8 46 06 bd f0 ea 4b bc af 01 68 bd c6 cc c7 bd
       -0.032782227 -0.01244615 -0.05664223 -0.09755854
000150 b4 26 0e bd a0 05 11 3b 24 71 ba 3d a8 14 e1 3d
       -0.03470488 0.0022128597 0.09103611 0.10990268
000160 c0 36 ab ba 64 c5 d2 3d 98 eb b4 3c 10 d1 a1 3c
       -0.0013062581 0.102915555 0.022084996 0.01975301
000170 15 48 52 bd 84 5a 8d bc 8e b1 81 bd 48 e2 b8 bc
       -0.051338274 -0.017255075 -0.06332694 -0.022568837
000180 4a 61 3b bd f0 15 89 bc 02 75 e5 bd 84 b0 a4 3d
       -0.04574708 -0.016734093 -0.11203958 0.0804148
000190 9e 80 20 bd 5c b0 dd bd 20 48 32 3d a0 f4 be 3d
       -0.03918516 -0.108246535 0.043525815 0.09324002
0001a0 d0 ec 42 bc 0a 54 bf 3d d4 b5 49 3d 50 a3 88 bb
       -0.011897281 0.09342201 0.04924567 -0.004169859
0001b0 d8 b5 dd bd 94 d8 0c 3d 2c 9b 98 bd 68 72 43 bc
       -0.108256996 0.034386232 -0.07451472 -0.011929132
0001c0 10 6a a3 bc c8 a7 01 bd 03 d1 a1 bd 68 56 ce bd
       -0.019948035 -0.03165415 -0.07901194 -0.100750744
0001d0 d2 4d 89 3d a2 9c c0 3d 27 d7 78 bd 2e 72 b6 3d
       0.06704296 0.09404875 -0.06075206 0.08908497
0001e0 0d 5a 83 bd 72 02 33 bd 80 f4 5c bb 02 65 91 bd
       -0.0641366 -0.043703504 -0.003371507 -0.07099344
0001f0 c5 75 c8 bd 20 5d 2a 3c 98 70 9a bc b2 73 c1 bd
       -0.09788088 0.010398179 -0.018852517 -0.09445895
000200 c4 83 ad bd dc 7a c4 bc 90 2e 91 3d 2e ea 1e bd
       -0.08472398 -0.023984365 0.07088959 -0.03879755
000210 30 43 d6 3d 68 16 b6 3c f8 22 36 3c f2 78 d1 bd
       0.10462034 0.022227481 0.011116736 -0.102281466
000220 0c 07 3a 3d 48 e6 11 3c 70 2b e4 bb 10 16 9f bb
       0.045416877 0.008905001 -0.006963186 -0.004854925
000230 10 1b bb bb b7 91 df bd f8 b7 c2 3c 40 59 e9 3c
       -0.005710013 -0.10916465 0.023769364 0.02848494
000240 cf 39 af bd b0 b6 58 3c 04 ba 5d 3d b6 6a c9 3d
       -0.08555948 0.01322715 0.054132476 0.098348066
000250 2c 3f 1e 3d d8 9d 3a bd 06 78 7d bd 4e 90 18 bd
       0.038634464 -0.045560688 -0.06188204 -0.037246995
000260 1c 9a 2e 3d 30 5d 62 3d b5 4c 52 bd a0 cc 32 bc
       0.04262744 0.05526465 -0.051342685 -0.010913044
000270 8c f2 d7 3d 4c 6e bd 3d 26 a7 97 bd 84 2b 59 3d
       0.10544309 0.09249553 -0.07404928 0.053020015
000280 d4 c9 8c bc 76 40 b7 3d ba 45 89 bd 46 ed a0 bd
       -0.017186083 0.08947842 -0.067027524 -0.07857756
000290 18 9e 79 bd 6a 31 a5 3d 88 35 e1 3d 2d 0d 6b bd
       -0.060941786 0.080660656 0.109965384 -0.057385612
0002a0 e6 9a 9f bd 8c 40 2c 3d 0c 72 78 3d d0 33 10 bc
       -0.077932164 0.042053744 0.06065564 -0.008801416
0002b0 70 f6 58 3c ca 91 7f bd 46 ef 73 bd 38 76 2c bd
       0.013242349 -0.062394895 -0.05955436 -0.04210493
0002c0 54 7e 55 3d 5c 7c 58 3d 8e 0d a5 3d ec fc 5d bd
       0.05212243 0.052852973 0.08059226 -0.054196283
0002d0 a2 c1 b2 bd 90 45 60 bc 68 df 85 3d 38 50 19 3d
       -0.08728339 -0.01368846 0.06536752 0.03743002
0002e0 0c 25 90 bc de f6 c5 bd 1c b0 77 bd 80 25 f2 3c
       -0.01759579 -0.09666227 -0.060470685 0.029558897
0002f0 ce 47 9f 3d 70 a8 49 3d 61 73 5c bd 58 82 72 3d
       0.077773675 0.0492329 -0.05382097 0.059206337
000300 e0 0a 3f 3d 2e 15 b6 bd c6 40 a2 bd cc 8f bd bc
       0.04664123 -0.088907585 -0.07922511 -0.023139857
000310 d0 69 69 3c 90 54 2d bd 70 78 81 bb 18 75 d3 3d
       0.014246419 -0.042316973 -0.003951125 0.10325068
000320 5c b5 94 3d 28 b1 8a 3c b8 fa be bc e6 d3 a0 3d
       0.07261154 0.016930178 -0.023312911 0.078529164
000330 f2 9e b4 bd 22 1a a1 3d ad a9 b3 bd 48 98 ae bc
       -0.08819379 0.078663126 -0.087725975 -0.021312848
000340 80 84 46 3d 46 98 b3 3d 4e ec b0 3d f0 8d f8 bb
       0.048466206 0.08769278 0.086388215 -0.0075852796
000350 90 fc 9c bd 44 94 c3 3d ae 45 8f 3d e0 fb 7b 3b
       -0.0766536 0.09549764 0.06995712 0.003844969
000360 17 41 c0 bd 2e 25 73 bd c2 37 17 bd ed 2a d6 bd
       -0.09387415 -0.05936163 -0.03691841 -0.10457406
000370 37 91 ad bd e6 07 44 bd 50 09 ba 3b f8 47 1e bd
       -0.08474963 -0.047859095 0.0056773797 -0.038642853
000380 fa 38 bc bd 1c f3 c6 3d 04 b4 24 bd b8 66 d5 bc
       -0.09190555 0.09714338 -0.04021074 -0.026049957
000390 02 16 e3 3d 8c 37 e4 3d 44 c5 df 3d d4 b5 95 bd
       0.11088182 0.11143407 0.10926297 -0.073100716
0003a0 6e 33 87 bd 2e 24 d1 3d c2 ba 9e 3d 54 ed 1a bd
       -0.06601606 0.10211979 0.07750465 -0.03782399
0003b0 20 d4 29 3d e0 0d 3e bd c7 ab 55 bd 16 ca d0 bd
       0.041462064 -0.04639995 -0.052165773 -0.10194795
0003c0 b8 c7 90 bd ac e8 9c 3d 64 74 b4 bc 0a cf d4 3d
       -0.07069343 0.07661566 -0.022028156 0.10391052
0003d0 96 1b e3 3d c8 04 da 3d 82 65 de 3d b1 5a c3 bd
       0.11089246 0.10645443 0.10859205 -0.095387824
0003e0 d2 18 85 3d 10 21 e7 3c 44 7c c9 bc 80 a1 3d 3d
       0.06498875 0.028214008 -0.024595387 0.046296597
0003f0 40 86 70 bb b8 36 aa bd 85 6b 94 bd c8 62 be 3d
       -0.0036701113 -0.08311218 -0.0724707 0.09296185

pretrain_emb_layer.embedding_to_128_layers.2.linear.bias f4 [32]
000000 74 69 1e 3d bc 5c b8 3d de 91 b8 bd 92 fe 22 bd
       0.038674787 0.09002063 -0.09012197 -0.03979356
000010 ec 9c 97 bc 72 9c df 3d ec 59 c8 bc 02 e3 26 bd
       -0.018507443 0.109185115 -0.02445694 -0.040743835
000020 92 ae 9d 3d 24 35 c6 3d 8c ad e2 3d 89 57 56 bd
       0.07699312 0.096781045 0.11068258 -0.052329574
000030 90 07 bd bd 00 80 b5 bd b0 ed 9e 3d 0e c3 dd 3d
       -0.09229958 -0.08862305 0.07760179 0.10828219
000040 08 48 2a 3c 5e de b7 bd b8 ea 3b bc 1a f8 a4 3d
       0.01039315 -0.0897796 -0.0114695355 0.08055134
000050 04 0c 83 3d 9a 1e d9 3d ec 79 61 3d 94 2c 1a 3d
       0.06398776 0.1060154 0.055047914 0.03764017
000060 22 66 8e bd 78 a1 7c bd 3a c8 9d 3d 10 a4 38 bd
       -0.06953074 -0.061677426 0.07704206 -0.045078337
000070 80 83 7e bd 4c 6d 2a 3d 5e 71 d3 3d 8c c7 69 3d
       -0.062137127 0.04160814 0.103243575 0.05707507

pretrain_emb_layer.embedding_to_128_layers.3.linear.weight f4 [32, 768]
000000 e4 13 c8 bc 10 11 6b bb f0 2a 33 3b 88 a5 f3 3c
       -0.024423547 -0.0035868324 0.0027338825 0.029742017
000010 c0 59 fa bc da 47 f9 bc cc fc 42 3c cc 6e 1d 3c
       -0.030560374 -0.03042977 0.011901092 0.009608936
000020 a4 af be bc 3c ed a5 3c 40 77 6d 3c 20 d2 2e 3b
       -0.023277111 0.020254724 0.014493763 0.0026675537
000030 24 5e 79 3c f8 4b b2 bc 35 f7 0e bd 40 64 21 3b
       0.015220199 -0.02176474 -0.034903724 0.0024626404
000040 e4 6c 05 bd 2c 0c 16 3c 76 e6 a8 3c a5 49 00 bd
       -0.03257455 0.009158175 0.020617705 -0.031320233
000050 b1 77 88 bc 22 47 b5 3c 04 4d b3 bc 04 87 e2 3c
       -0.016658636 0.022128645 -0.02188731 0.027652271
000060 e4 44 c6 3c 34 d4 ec 3c b8 7e e4 3c 46 03 a2 3c
       0.024202771 0.02890978 0.027892455 0.019776952
000070 80 79 f9 3a f0 9f ba 3b e8 2d ab bc 4a 9b 34 bc
       0.0019033402 0.0056953356 -0.020895913 -0.011023352
000080 66 81 04 bd 56 ee 86 3c 56 18 85 bc 36 6d f1 bc
       -0.032349966 0.01647107 -0.016246956 -0.029471021
000090 08 91 9e 3c 60 da 0e 3d 2e a7 80 bc 51 9f 09 bd
       0.019356266 0.034876227 -0.015704717 -0.0335992
0000a0 32 a5 80 3c c4 b1 c9 3c 26 e9 06 bc ea 34 ba bc
       0.015703771 0.024620898 -0.008234298 -0.02273031
0000b0 e0 05 63 3c e0 94 77 3c 79 c4 e7 bc 9a 49 e3 bc
       0.013856381 0.015111178 -0.028291928 -0.027745057
0000c0 96 09 67 bc 8c 48 10 3c ba 84 9a 3c 60 39 2f bb
       -0.014101407 0.008806359 0.018862117 -0.002673708
0000d0 38 24 d9 3c 48 95 21 3c a0 d2 66 3c e0 d5 f6 3b
       0.026506528 0.009862252 0.014088303 0.00753282
0000e0 20 b8 11 3d c0 b0 a0 3b e8 c7 12 3d 14 09 d1 3c
       0.035575986 0.0049038827 0.035835177 0.025517024
0000f0 16 17 0f 3d e0 a6 12 bb 8b e3 02 bd f0 60 27 bb
       0.034934126 -0.0022377297 -0.031955283 -0.0025539957
000100 ac c1 e0 bc 6e 33 08 bc ae 78 5d bc 00 2a 29 39
       -0.0274361 -0.008313043 -0.013517542 0.00016132742
000110 18 4a 9e 3c 6c ec 50 3c d6 77 d4 3c d8 aa 50 3c
       0.01932244 0.01275168 0.025936048 0.012736045
000120 80 45 b3 bb 96 b9 b5 3c 2a e7 c8 3c fa 5a af bc
       -0.0054709315 0.02218322 0.02452429 -0.021405686
000130 c0 84 4a 3b f8 0d 0a 3c 8c 35 c8 bb b0 e4 92 bb
       0.003090188 0.008426182 -0.006109899 -0.004482828
000140 49 af de bc 80 b1 47 bb c0 0a 52 bb 58 75 61 bc
       -0.027183192 -0.0030470788 -0.0032049865 -0.013760887
000150 c7 24 8b bc c8 e7 ae bb da c8 b1 3c 60 ce 1a 3c
       -0.01698531 -0.005337689 0.021702219 0.009448618
000160 6a 15 00 bd 20 0d 44 bb 7e 7e 7f bc 9c 11 eb bb
       -0.031270422 -0.002991505 -0.015594123 -0.00717373
000170 22 39 8c 3c 86 fb d1 bc 68 fd d7 3c c0 d7 8d bc
       0.017117087 -0.025632631 0.02636595 -0.017314792
000180 f0 ea 82 3b 70 41 c3 3c dc 63 fc 3c 88 ef 01 3d
       0.003995292 0.023834914 0.030809335 0.031722575
000190 0c 58 81 bc 30 d4 40 bc 56 69 ac bc 00 da 9f 39
       -0.015789054 -0.011769339 -0.021046322 0.00030489266
0001a0 fc 9a da bc 76 ad 9c bc 91 95 91 bc 00 84 e7 ba
       -0.02668523 -0.019125681 -0.017771514 -0.001766324
0001b0 50 53 a5 3b a0 11 b9 3b 80 76 d2 bb 45 45 87 bc
       0.005045332 0.005647853 -0.0064228177 -0.016512522
0001c0 f4 b0 3a 3c d0 77 27 bb 08 c8 a4 3c 18 70 0f 3c
       0.011394728 -0.0025553592 0.020114914 0.008754753
0001d0 54 41 8b 3c 20 75 5d 3c 2f 64 86 bc 24 77 bc 3c
       0.016998924 0.013516694 -0.016405193 0.02300603
0001e0 ca d8 e6 bc 26 e8 bf 3c 0e 27 2c bc 68 6b 97 bb
       -0.028179545 0.023426127 -0.010507358 -0.004620958
0001f0 03 98 df bc c0 a3 eb 3c ec 8c d1 bc c9 fe 04 bd
       -0.027294165 0.028764606 -0.025579892 -0.032469545
000200 24 93 fd bb 8a 0a 8f bc 0c 07 e0 bb e6 61 b4 3c
       -0.007738488 -0.01746108 -0.0068367776 0.022019338
000210 68 40 04 3d 40 42 f9 3c 5f 64 13 bd 83 3b a2 bc
       0.032287985 0.030427098 -0.035984393 -0.019803768
000220 20 90 af bb 20 09 67 3c 40 13 71 ba 2b d8 10 bd
       -0.005357757 0.014101297 -0.0009196289 -0.035362404
000230 46 3e 41 bc 18 89 a8 bb f0 f2 51 bb ec 75 f1 bc
       -0.011794632 -0.005143296 -0.0032035671 -0.029475175
000240 03 5b ec bc 00 9c 8c 3c 26 77 ae 3c 80 d2 86 3b
       -0.028851992 0.01716423 0.021297049 0.004114449
000250 00 7e 12 3b 4c 10 ba bc ba b3 ad 3c 70 42 2c 3b
       0.0022352934 -0.02271285 0.021203864 0.0026284717
000260 88 66 0f 3d d2 3c c0 3c 9c 14 f5 3c da 2a 88 3c
       0.03500989 0.023466501 0.029917054 0.016621996
000270 da 8b a1 3c 38 11 92 bc 20 9b 9a bb 28 ad 15 3c
       0.019720007 -0.017830476 -0.0047181994 0.009135522
000280 19 5e 0a bd 78 41 3e 3c b4 36 e5 3c b8 64 38 3c
       -0.033781145 0.011612289 0.027980186 0.011254482
000290 9a e1 86 3c 06 12 00 bc f0 36 65 3c 4c a4 05 3d
       0.016464997 -0.007816797 0.013990149 0.03262739
0002a0 52 61 01 3d 30 0e e8 3c 80 cc 8a 3c 42 1f ce bc
       0.031586953 0.028327078 0.016943216 -0.02516139
0002b0 34 49 5a 3c 70 d0 f9 bc 28 f7 c8 bc c8 d1 ec bb
       0.013323117 -0.030494899 -0.024531916 -0.0072271563
0002c0 e4 c6 05 3d 36 64 3a bc a0 8d 27 bc a0 5c db bc
       0.03266038 -0.011376431 -0.010226637 -0.026777565
0002d0 e2 6e d5 3c ad 7f 9a bc 1b 97 82 bc c8 80 e1 bc
       0.02605385 -0.018859709 -0.015941193 -0.027527228
0002e0 a8 88 95 3c 28 8f 72 3c 80 5d 8f b9 d8 43 81 3c
       0.01825364 0.014804639 -0.00027344748 0.01577942
0002f0 f0 eb 21 3c 78 4b f5 3b c6 6a 03 3d 6a 76 06 3d
       0.009882912 0.007485803 0.03208425 0.032827772
000300 14 27 fe 3c 00 4e 67 b9 27 89 c5 bc 20 33 10 3b
       0.031024493 -0.00022058934 -0.02411325 0.002200313
000310 5a 70 d3 3c 08 34 e3 bb d0 d9 d8 bc a6 c9 c9 bc
       0.02581041 -0.006933693 -0.026471049 -0.024632286
000320 4a be bf bc 64 35 84 bc 25 1c e1 bc 90 20 e5 3c
       -0.023406167 -0.01613874 -0.02747924 0.027969629
000330 2d 46 d9 bc 10 7a db 3b 54 ca 13 bd 44 12 0b 3d
       -0.02652272 0.0066979006 -0.036081627 0.033952966
000340 20 e9 5a bb 00 d7 ba 3b 6a 68 95 3c f6 35 85 3c
       -0.0033403113 0.0057018995 0.018238265 0.016261082
000350 7c ba 31 bc b0 a7 a2 3b 1c eb 5c 3c 54 45 84 3c
       -0.010847684 0.0049638376 0.013483789 0.01614634
000360 b0 4c 6b bb 1c 79 6d 3c f5 a8 e6 bc 68 bb a6 3b
       -0.0035903864 0.014494207 -0.028156737 0.0050882585
000370 18 60 a1 3c b0 b3 ff bb a0 80 94 bb 00 11 9f 3c
       0.019699141 -0.007803403 -0.004531935 0.019417286
000380 15 6c a5 bc 3c 83 31 3c 12 55 e9 bc 90 78 ab bc
       -0.02019314 0.010834511 -0.028482947 -0.020931512
000390 08 c2 05 bd b0 4c d7 3c 60 2e 32 bb fc e8 ef 3c
       -0.032655746 0.026281685 -0.0027188286 0.0292859
0003a0 80 03 c6 bb bc 89 d8 3c 10 36 0b 3c 88 ed eb bc
       -0.0060428977 0.026432864 0.008496776 -0.028799787
0003b0 24 d3 20 3c 4d 3e bf bc e8 0e 50 bc bc c4 69 3c
       0.009815965 -0.023345137 -0.012698866 0.014268097
0003c0 50 46 9e 3c 94 c3 05 3c d4 c7 c2 bb c0 27 2d 3a
       0.019320637 0.008164305 -0.0059442315 0.00066053495
0003d0 00 f6 96 39 dc ab 3d bc 52 43 55 bc d8 02 b8 bb
       0.00028793514 -0.011576619 -0.013016539 -0.0056155734
0003e0 bb 96 85 bc e0 ca 93 bb c0 a6 70 3c d2 9a 00 bc
       -0.016307225 -0.0045102686 0.014688194 -0.007849412
0003f0 e0 0e a4 3b cc dd 18 3c 00 f8 f8 3b 2c 83 ad 3c
       0.005006656 0.009330224 0.0075979233 0.021180712

pretrain_emb_layer.embedding_to_128_layers.3.linear.bias f4 [32]
000000 6c ba 26 bc a0 d8 23 3b be bb c7 bc a6 26 9a 3c
       -0.010176282 0.0025000945 -0.024381515 0.018817257
000010 b0 94 8a 3c 60 d7 57 bb 38 61 8a 3c 8c 84 06 3d
       0.016916603 -0.003293477 0.01689206 0.03284125
000020 00 f7 a1 b9 b0 20 e5 3b 8a db a6 bc e0 31 97 3b
       -0.00030892342 0.006992422 -0.020368356 0.0046141
000030 bc 95 b5 bc d0 47 13 3b b0 18 e3 bb ce 23 00 3d
       -0.022166125 0.0022473224 -0.006930433 0.031284146
000040 f2 e3 7f bc fa 00 b8 bc d0 04 e2 bb e0 e5 d0 3a
       -0.015618311 -0.022461403 -0.0068975464 0.0015937649
000050 1e a2 99 bc 9e b0 c8 3c 56 72 ac 3c 0c 4b a2 3c
       -0.018754061 0.02449828 0.021050613 0.019811176
000060 2d 4d 89 bc 08 3b 14 3c 29 6c d4 bc 84 63 58 3c
       -0.016760433 0.009047277 -0.025930481 0.01320732
000070 9e 5e 9c 3c 8b 63 84 bc 4e 57 7a bc 06 ec 03 3d
       0.019088086 -0.016160747 -0.015279604 0.03220751

pretrain_emb_layer.embedding_to_128_layers.4.linear.weight f4 [32, 768]
000000 3d 09 0d bd 90 37 71 3c 79 51 a7 bc b8 03 f3 3b
       -0.03443264 0.01472272 -0.020424591 0.007416215
000010 54 c8 d5 bb 30 19 04 3c 72 98 05 3d e0 02 c4 bc
       -0.006524125 0.008062646 0.032616086 -0.023927152
000020 60 ab ff 3b 3e 94 cd 3c b4 71 12 3c b5 6b 12 bd
       0.007802412 0.025095101 0.008938242 -0.03574725
000030 9c 0e 5b bc cc 19 60 3c 68 7f 07 3c 08 19 f6 3c
       -0.013370182 0.013678025 0.008270122 0.030041233
000040 08 78 d2 bc 61 a7 0e bd bc 2f 26 bc 86 c5 09 bd
       -0.025692001 -0.034827594 -0.010143217 -0.03363564
000050 b5 9b 9e bc d4 b8 f1 3c 02 cc 4d bc d2 8e 0b 3d
       -0.019361356 0.029507078 -0.012560846 0.03407175
000060 50 5c 44 3c bd 03 b7 bc 3d 3c ab bc 18 46 ae bc
       0.0119849 -0.02234065 -0.020902747 -0.021273658
000070 30 63 bc 3c 90 50 ff 3b 98 b6 a2 bb 56 cb be bc
       0.022996515 0.007791586 -0.0049656145 -0.023290318
000080 04 70 10 3c 00 92 f6 3c 8a d7 04 bd 84 c6 f9 bc
       0.008815769 0.030098915 -0.032432117 -0.030490167
000090 f6 ea a6 3c a0 16 00 3d 90 1d 21 3c 1e ee 0c 3d
       0.02037571 0.031271577 0.009833708 0.034406774
0000a0 00 a9 15 b9 70 ed 4c 3c 10 24 d1 3c 40 1a 9a bb
       -0.00014272705 0.012507781 0.025529891 -0.0047028363
0000b0 9a 41 04 bc 54 78 49 3c 88 4c 9f 3b e0 04 7d 3c
       -0.008072281 0.012296755 0.004861418 0.015443057
0000c0 58 8d b7 bb ac bb 32 bc fe be a3 3c 5e b7 0c bd
       -0.0056015663 -0.010909002 0.019988533 -0.03435456
0000d0 18 5d d5 bb b7 a0 92 bc 60 97 7e 3c 52 e7 0a 3d
       -0.006511342 -0.0178989 0.01553902 0.03391201
0000e0 06 4d fd bc ea 82 f1 bc 90 53 a7 3c a0 c2 a5 3c
       -0.030920517 -0.02948137 0.020425588 0.020234406
0000f0 04 a6 4f 3c 44 16 aa 3c c6 2e a5 3c ec bd ef bb
       0.012673859 0.02076257 0.020163905 -0.0073163416
000100 a4 b2 07 3d 68 6d 13 bd 9a 80 d2 bc 12 e0 05 bd
       0.03312935 -0.03599301 -0.025696088 -0.032684393
000110 c0 f1 d8 3c d8 2c 85 bb 5a e2 01 3d 1e cc b6 bc
       0.026482463 -0.0040641837 0.031710006 -0.022314128
000120 90 b6 0a 3b 74 dd 38 3c ac a4 e4 3c be 9a 01 3d
       0.0021165945 0.011283267 0.027910553 0.031641714
000130 ee 84 93 3c cc b4 ac 3c de d0 e2 bc 78 5b c2 bb
       0.018007722 0.021082304 -0.027687486 -0.005931314
000140 70 70 a5 3b dc 3f d4 3c a5 76 10 bd e8 f6 2c bc
       0.005048804 0.025909357 -0.0352694 -0.010556914
000150 0a 9c a6 3c bc c8 0d bd ee f0 5d bc 9c a3 aa bc
       0.020338077 -0.034615263 -0.013546212 -0.020829968
000160 e0 48 d3 bb b4 db 3e 3c 80 23 a5 bb 20 e1 f6 ba
       -0.0064478964 0.011649061 -0.0050396323 -0.0018835403
000170 38 82 7f 3c 68 b5 81 3b b8 65 e3 bc e8 61 e9 3c
       0.015595011 0.003958393 -0.027758464 0.028489068
000180 f8 a5 14 bc b0 48 ae bc 00 17 79 b9 24 1e f6 3c
       -0.009072773 -0.021274894 -0.00023755059 0.030043669
000190 2e aa 6c bc 76 79 bb 3c 78 d8 26 3c 9c 07 0d bc
       -0.014444871 0.022885066 0.010183446 -0.008607771
0001a0 d4 f8 0b 3d 72 6c c9 3c a4 5c f2 bc 1c eb 02 3c
       0.034172848 0.024587844 -0.02958519 0.007990625
0001b0 a8 dd e1 3b ab b8 ec bc 6c 83 e8 bc 80 b0 ac 3c
       0.0068928786 -0.02889665 -0.02838298 0.021080256
0001c0 00 97 49 3c ba 92 8b bc fe 20 a5 3c 58 4d f7 3b
       0.012304068 -0.017037738 0.020157333 0.007547062
0001d0 d0 df 26 bb 50 55 b0 3c 39 62 fe bc 56 1b 0d 3d
       -0.0025462992 0.021525055 -0.031052696 0.034449898
0001e0 76 0f bc bc 7c 0a fb bb ea 90 b1 3c 65 c2 f0 bc
       -0.022956591 -0.007661162 0.021675546 -0.02938957
0001f0 90 9b 37 bc 0c ba 04 3d d0 88 7f bb ac 15 92 3c
       -0.011206523 0.03240399 -0.0038991459 0.0178326
000200 cb 78 f2 bc ea 66 90 3c 68 67 ab 3b 30 61 8f bc
       -0.029598614 0.017627198 0.005230833 -0.017502397
000210 99 ec 0c bd f2 a3 ab 3c e0 9b ed bc a4 7d f4 bb
       -0.034405325 0.020952199 -0.029004991 -0.0074612666
000220 e6 57 93 3c 00 e0 32 3a 3e aa 5b bc f4 33 bc 3c
       0.01798625 0.000682354 -0.013407288 0.022973992
000230 68 e9 ff 3b 00 32 40 3b cc cb c2 bb f0 04 5a bb
       0.0078098066 0.0029326677 -0.0059447046 -0.0033267103
000240 ec 97 e6 3c 9b 6e 0a bd 80 10 53 bc 99 2d 06 bd
       0.028148614 -0.033796888 -0.012882352 -0.03275833
000250 d8 b2 e4 3b ca 34 96 3c e0 75 a3 3c b8 8c e0 3b
       0.0069793276 0.018335719 0.019953668 0.0068527125
000260 98 f7 4b bc 4e ff d1 bc f0 bc e0 bc b8 09 a8 bb
       -0.012449168 -0.025634434 -0.027433842 -0.0051281117
000270 c4 26 15 3c 32 fd ca bc 26 84 fd bc e4 56 34 bc
       0.009103481 -0.024778936 -0.030946802 -0.011007044
000280 14 ce f5 3c e2 29 03 bc d0 5c 89 3b 5c 4c ae 3c
       0.030005492 -0.008005591 0.0041919723 0.021276645
000290 12 5b c1 bc c8 30 b5 bb d8 71 01 bd 6c 75 90 3c
       -0.023602996 -0.005529497 -0.03160271 0.017634116
0002a0 e0 33 7a bb da 32 e4 bc c9 d8 f1 bc 58 c3 91 bb
       -0.0038177893 -0.02785628 -0.029522317 -0.0044483356
0002b0 5a 22 8d 3c 54 9b f0 bb 84 b6 ed 3c 0a b5 06 bc
       0.017228294 -0.0073427353 0.029017694 -0.008221874
0002c0 7a d0 12 3d 76 ba 02 3d be a1 c3 bc 38 2e 57 3c
       0.03584335 0.031916104 -0.023880836 0.013133578
0002d0 54 54 5a 3c 30 ee fb 3b d0 e4 70 bb dc cf f1 bb
       0.013325769 0.0076883063 -0.0036757477 -0.007379515
0002e0 da e8 af 3c 86 5b 85 3c 7b 2e 10 bd d0 ae ac 3c
       0.021473337 0.016278993 -0.035200577 0.02107945
0002f0 98 c7 e1 3b 9a ae e2 bc 58 a2 63 3c 70 64 91 bb
       0.0068902485 -0.027671147 0.013893686 -0.004437022
000300 0a 62 03 3d 1d 2a da bc 26 df 20 bc 8c ea 0c 3d
       0.03207592 -0.02663141 -0.009818828 0.03440337
000310 80 c2 bb 3b 28 6f 4c 3c 44 b8 f2 3c 60 9d 4d 3b
       0.0057299733 0.012477674 0.02962888 0.003137432
000320 e8 84 bd 3c a8 9d d4 3c ed 0d 00 bd 5b 7c cb bc
       0.023134664 0.025954083 -0.03126328 -0.02483957
000330 00 1c 5b ba 80 fb 3a 3a fa 72 d6 3c 18 a5 6c 3c
       -0.00083583593 0.00071328133 0.026177872 0.014443658
000340 84 4a fc bb b8 ff ed bc d4 29 39 3c 2e d4 98 3c
       -0.0076993126 -0.0290526 0.0113014765 0.018655863
000350 52 d6 14 bc f0 fc d4 3c ea 6d 88 3c d0 5a 4c 3c
       -0.009084301 0.025999516 0.016653974 0.012472823
000360 bc 3c 9d bc a8 92 fa bc ca c3 94 3c c0 57 4a bb
       -0.019194 -0.03058751 0.018159766 -0.0030875057
000370 62 ec e6 bc 94 e8 12 3d 84 4d c7 bc 76 cc 09 bc
       -0.028188888 0.035866335 -0.024328955 -0.008410564
000380 7c 04 ea 3c 94 33 2c 3c 45 31 9f bc 9c 6e 84 3c
       0.028566591 0.010510344 -0.019432673 0.016166024
000390 ec 6e 15 bc 20 6d 95 bb c2 65 0b bd c8 7a a2 3c
       -0.009120684 -0.004560128 -0.03403259 0.019833937
0003a0 54 d2 74 3c 41 e2 ec bc 65 55 11 bd 77 37 9a bc
       0.014942724 -0.02891648 -0.03548183 -0.018825276
0003b0 05 1e fb bc ca df 5a bc c0 1c d6 3a fa 50 c1 3c
       -0.030653963 -0.0133590195 0.0016335472 0.023598183
0003c0 dc 44 f9 3c 5e a2 84 bc 60 1c 2e 3c aa 89 e5 bc
       0.030428343 -0.016190704 0.010626882 -0.028019745
0003d0 78 e4 7f 3c bc 05 e9 bc 3c 72 44 3c 11 dc a0 bc
       0.015618436 -0.028445117 0.011990126 -0.019636186
0003e0 c6 bb 71 bc c8 ec c6 bc c0 58 58 ba 3e 0d 00 3d
       -0.014754241 -0.024282828 -0.0008252971 0.03126263
0003f0 00 9a 32 39 78 93 91 bb bf 58 a1 bc 64 df 49 3c
       0.00017032772 -0.0044426285 -0.019695638 0.012321327

pretrain_emb_layer.embedding_to_128_layers.4.linear.bias f4 [32]
000000 92 4a 89 3c be a9 90 3c d4 82 f9 3c 1c 0a ed 3c
       0.01675919 0.017659064 0.030457892 0.028935485
000010 0a 0a 3f bc 04 51 a2 3c 59 fc 8a bc 80 92 44 3c
       -0.011660108 0.019814022 -0.016966032 0.011997819
000020 94 fe d0 3c 30 28 50 bb c0 10 9b 3b 66 ec 02 3d
       0.025512017 -0.0031762235 0.0047322214 0.03196373
000030 d6 f4 c3 bc e2 9c 21 bc 52 89 c1 bc ac 02 0e 3d
       -0.023920458 -0.009864064 -0.02362505 0.034670517
000040 bf 89 e8 bc 18 c4 08 3d 10 6a c9 3b 80 44 3b 3c
       -0.028385995 0.033390135 0.006146677 0.011429906
000050 70 ae cd 3c 38 7c 64 3c 8c 82 f6 3c 40 20 63 3a
       0.025107592 0.013945632 0.030091546 0.00086641684
000060 c8 96 a7 3b 90 f5 6b 3b 70 9a 17 bc 74 eb ed 3c
       0.00511441 0.003600452 -0.009253129 0.029042937
000070 d0 56 2f 3b a1 d0 0d bd 56 c4 7c bc 80 b6 06 bb
       0.0026754625 -0.034622792 -0.0154276695 -0.0020555556
